Model: "model"
__________________________________________________________________________________________________
Layer (type)                    Output Shape         Param #     Connected to                     
==================================================================================================
observation_input (InputLayer)  [(None, 10, 97, 96)] 0                                            
__________________________________________________________________________________________________
permute (Permute)               (None, 97, 96, 10)   0           observation_input[0][0]          
__________________________________________________________________________________________________
cropping2d (Cropping2D)         (None, 96, 96, 10)   0           permute[0][0]                    
__________________________________________________________________________________________________
conv2d (Conv2D)                 (None, 23, 23, 32)   20512       cropping2d[0][0]                 
__________________________________________________________________________________________________
conv2d_1 (Conv2D)               (None, 10, 10, 32)   16416       conv2d[0][0]                     
__________________________________________________________________________________________________
conv2d_2 (Conv2D)               (None, 8, 8, 32)     9248        conv2d_1[0][0]                   
__________________________________________________________________________________________________
cropping2d_1 (Cropping2D)       (None, 1, 96, 10)    0           permute[0][0]                    
__________________________________________________________________________________________________
flatten (Flatten)               (None, 2048)         0           conv2d_2[0][0]                   
__________________________________________________________________________________________________
dense_1 (Dense)                 (None, 1, 96, 256)   2816        cropping2d_1[0][0]               
__________________________________________________________________________________________________
dense (Dense)                   (None, 512)          1049088     flatten[0][0]                    
__________________________________________________________________________________________________
flatten_1 (Flatten)             (None, 24576)        0           dense_1[0][0]                    
__________________________________________________________________________________________________
concatenate (Concatenate)       (None, 25088)        0           dense[0][0]                      
                                                                 flatten_1[0][0]                  
__________________________________________________________________________________________________
dense_2 (Dense)                 (None, 5)            125445      concatenate[0][0]                
==================================================================================================
Total params: 1,223,525
Trainable params: 1,223,525
Non-trainable params: 0

   1000/500000: episode: 1, duration: 18.817s, episode steps: 1000, steps per second:  53, episode reward: -31.034, mean reward: -0.031 [-0.100,  7.563], mean action: 2.792 [0.000, 4.000],  loss: --, mae: --, mean_q: --
…
 [-1.   0.   0. ]
 [ 1.   0.   0. ]
 [ 0.   1.   0. ]
 [ 0.   0.   0.8]]
Model: "model"
__________________________________________________________________________________________________
Layer (type)                    Output Shape         Param #     Connected to                     
==================================================================================================
observation_input (InputLayer)  [(None, 10, 97, 96)] 0                                            
__________________________________________________________________________________________________
permute (Permute)               (None, 97, 96, 10)   0           observation_input[0][0]          
__________________________________________________________________________________________________
cropping2d (Cropping2D)         (None, 96, 96, 10)   0           permute[0][0]                    
__________________________________________________________________________________________________
conv2d (Conv2D)                 (None, 23, 23, 32)   20512       cropping2d[0][0]                 
__________________________________________________________________________________________________
conv2d_1 (Conv2D)               (None, 10, 10, 32)   16416       conv2d[0][0]                     
__________________________________________________________________________________________________
cropping2d_1 (Cropping2D)       (None, 1, 8, 10)     0           permute[0][0]                    
__________________________________________________________________________________________________
conv2d_2 (Conv2D)               (None, 8, 8, 32)     9248        conv2d_1[0][0]                   
__________________________________________________________________________________________________
dense_1 (Dense)                 (None, 1, 8, 64)     704         cropping2d_1[0][0]               
__________________________________________________________________________________________________
flatten (Flatten)               (None, 2048)         0           conv2d_2[0][0]                   
__________________________________________________________________________________________________
dense_2 (Dense)                 (None, 1, 8, 32)     2080        dense_1[0][0]                    
__________________________________________________________________________________________________
dense (Dense)                   (None, 512)          1049088     flatten[0][0]                    
__________________________________________________________________________________________________
flatten_1 (Flatten)             (None, 256)          0           dense_2[0][0]                    
__________________________________________________________________________________________________
concatenate (Concatenate)       (None, 768)          0           dense[0][0]                      
                                                                 flatten_1[0][0]                  
__________________________________________________________________________________________________
dense_3 (Dense)                 (None, 256)          196864      concatenate[0][0]                
__________________________________________________________________________________________________
dense_4 (Dense)                 (None, 5)            1285        dense_3[0][0]                    
==================================================================================================
Total params: 1,296,197
Trainable params: 1,296,197
Non-trainable params: 0
__________________________________________________________________________________________________
None
2020-03-08 09:41:46.557543: I tensorflow/core/platform/cpu_feature_guard.cc:142] Your CPU supports instructions that this TensorFlow binary was not compiled to use: AVX2 FMA
…
 [-1.   0.   0. ]
 [ 1.   0.   0. ]
 [ 0.   1.   0. ]
 [ 0.   0.   0.8]]
Model: "model"
__________________________________________________________________________________________________
Layer (type)                    Output Shape         Param #     Connected to                     
==================================================================================================
observation_input (InputLayer)  [(None, 10, 97, 96)] 0                                            
__________________________________________________________________________________________________
permute (Permute)               (None, 97, 96, 10)   0           observation_input[0][0]          
__________________________________________________________________________________________________
cropping2d (Cropping2D)         (None, 96, 96, 10)   0           permute[0][0]                    
__________________________________________________________________________________________________
conv2d (Conv2D)                 (None, 23, 23, 32)   20512       cropping2d[0][0]                 
__________________________________________________________________________________________________
conv2d_1 (Conv2D)               (None, 10, 10, 32)   16416       conv2d[0][0]                     
__________________________________________________________________________________________________
cropping2d_1 (Cropping2D)       (None, 1, 96, 10)    0           permute[0][0]                    
__________________________________________________________________________________________________
conv2d_2 (Conv2D)               (None, 8, 8, 32)     9248        conv2d_1[0][0]                   
__________________________________________________________________________________________________
dense_1 (Dense)                 (None, 1, 96, 64)    704         cropping2d_1[0][0]               
__________________________________________________________________________________________________
flatten (Flatten)               (None, 2048)         0           conv2d_2[0][0]                   
__________________________________________________________________________________________________
dense_2 (Dense)                 (None, 1, 96, 32)    2080        dense_1[0][0]                    
__________________________________________________________________________________________________
dense (Dense)                   (None, 512)          1049088     flatten[0][0]                    
__________________________________________________________________________________________________
flatten_1 (Flatten)             (None, 3072)         0           dense_2[0][0]                    
__________________________________________________________________________________________________
concatenate (Concatenate)       (None, 3584)         0           dense[0][0]                      
                                                                 flatten_1[0][0]                  
__________________________________________________________________________________________________
dense_3 (Dense)                 (None, 256)          917760      concatenate[0][0]                
__________________________________________________________________________________________________
dense_4 (Dense)                 (None, 5)            1285        dense_3[0][0]                    
==================================================================================================
Total params: 2,017,093
Trainable params: 2,017,093
Non-trainable params: 0
_____________________________________________________________________________________________
